src/saved_models/NN_lr0.001_bs8_epochs500_wgtdecay1e-05_hidden_size8_num_hidden_layers3_20250412_184433.pth (torch, 5812 bytes, 8 tensors)

network.0.weight f4 [8, 2]
00000000: c822 72c0 73a4 3a3f 1827 8cbf 8455 50bf
00000010: ed39 8440 5765 8ac0 c65a 7d40 4ff5 e73f
00000020: 5ad5 8e40 3a33 8b3f 3223 d53f f5f2 0640
00000030: 468a a73e fb18 393f 75a3 e7bf ece9 72be
-3.7833729 0.7290718 -1.094943 -0.81380486 4.132071 -4.3248706 3.9586654 1.8121737
4.463544 1.0875008 1.6651366 2.108579 0.32722682 0.7230374 -1.8096758 -0.23722047

network.0.bias f4 [8]
00000000: a0db 1f40 20a6 cf3d f158 99bf 5e6a cdbf
00000010: 13cd fcbf 4dcc 18bf 8e20 f9bd 5749 e13f
2.4977798 0.10139108 -1.1980268 -1.6048086 -1.9750084 -0.5968674 -0.121644124 1.7600507

network.2.weight f4 [8, 8]
00000000: 32bf 9640 f4d1 3bbf 90bd b8bf 1090 993d
00000010: ab6a 33bf 83ce e93f 720a 883f 72d6 fcbf
00000020: aabe 1ec1 3490 b0bf 6d27 de3e b661 323f
00000030: af2d bf3f 477d 4b3f ec1a aabf ac7f 75c0
00000040: 1c68 9fbf 37a4 363f c71e a93f dfa0 88bf
00000050: 8081 6ebf 2de5 fabf a55b 7cbf 3722 f13f
00000060: ca47 a640 d74a 75bf 6e43 dbbf c258 a2bf
00000070: d388 c0bf 0d24 c23f 1bb1 193f 064a 01c0
00000080: f890 dcc0 101c f83e 0141 9b3f 1d72 4f3f
00000090: 9a1d 0840 12a5 b6bf ddf7 e1bf f616 123f
000000a0: 8a4c bac0 471e 553f f778 7c3f 163f 803f
000000b0: 1b84 dd3f 577b c5bf a33b 1bc0 86a7 b73e
000000c0: 658e c240 6f5f fdbe 01f5 90bf 9113 91bf
000000d0: ee40 dfbf f163 8b3f ae9e 1840 4abd 05be
000000e0: f8aa 89c0 ef6d 873f 8e38 6440 5aae 24bf
000000f0: 2391 88be 57e8 3bc0 74cc 09c0 de91 f03f
4.7108393 -0.7336724 -1.443285 0.07498181 -0.7008464 1.8266147 1.0628188 -1.9752944
-9.921549 -1.3794007 0.43389454 0.69680345 1.4935817 0.79488033 -1.3289466 -3.8359175
-1.2453647 0.7134432 1.3212517 -1.0674094 -0.9316635 -1.9601189 -0.9857734 1.8838567
5.1962633 -0.9581732 -1.7129953 -1.2683337 -1.5041755 1.5167252 0.60035866 -2.020143
-6.8926964 0.4845891 1.2129213 0.810335 2.1268067 -1.4269125 -1.7653767 0.57066286
-5.821843 0.83249325 0.9862208 1.0019252 1.730594 -1.5428265 -2.425515 0.35869998
6.079882 -0.49486873 -1.1324769 -1.1334096 -1.744169 1.0889875 2.384685 -0.1306049
-4.30212 1.0580424 3.5659518 -0.6432854 -0.2667323 -2.936056 -2.1531038 1.8794515

network.2.bias f4 [8]
00000000: 8e5a 813d 7ff2 adbf 1198 1a3e abb8 babd
00000010: 6a8f 0dbe 9ed7 49bf d59a 633f e63f dfbe
0.063161 -1.3589629 0.15097071 -0.09117254 -0.1382424 -0.7884463 0.8890813 -0.43603438

network.4.weight f4 [8, 8]
00000000: 2128 943f 005f 0bc0 1ecd a93f bf33 d83f
00000010: c293 78bf ecd8 2bc0 06c7 9c40 0332 eabe
00000020: db8c 6840 674c 0c40 1447 dabf dcc9 9140
00000030: ec8c 103e e6d3 953f f3ed 9bbf febf ffbf
00000040: 456a 2dc0 a25e 3dc0 185c 643e b9c9 5ec0
00000050: 6e29 ea3f b37b 2f3e 92b5 613e 9c0f 953f
00000060: 4214 26c0 09ca 28c0 92d3 fbbc 5d13 6ec0
00000070: 1aa1 823f 6639 bebe a7ba 5d3f 6f02 d33f
00000080: d190 06c0 8f3f 073f f660 04bf f2a3 0cc0
00000090: 642b b43f 2bc0 0a40 778b 80c0 a3bb 873f
000000a0: 3669 3640 75cf 2fc0 eb4e d0bf c29d c93f
000000b0: e043 eabd fd9f 4d3f 893c 27bf 7723 5dc0
000000c0: ddd3 09c0 8467 b1bf 5355 0bbf 346f 30c0
000000d0: 20a0 f23f 67d9 ce3f 627a 19c0 8b26 953f
000000e0: 6dc0 1b40 9bf4 d93f b50b 14bd d780 1a40
000000f0: a98a 09c0 f429 04c0 e02d 1f40 215b 95bf
1.1574746 -2.1776733 1.3265722 1.6890792 -0.9710046 -2.6851149 4.899295 -0.4574128
3.6335971 2.1921632 -1.7052941 4.555891 0.14116257 1.1705291 -1.2181991 -1.9980466
-2.7096112 -2.958901 0.22300756 -3.4810622 1.8293893 0.17137031 0.2204192 1.1645389
-2.5949864 -2.6373312 -0.030740533 -3.7199318 1.0205414 -0.37153167 0.86612934 1.6485118
-2.102589 0.5283136 -0.5171045 -2.1975064 1.4075742 2.167979 -4.0170245 1.0604137
2.8501716 -2.7470372 -1.6274084 1.5751269 -0.114387274 0.8032225 -0.65326744 -3.4552896
-2.153556 -1.3859715 -0.5442707 -2.7567873 1.8955116 1.6160096 -2.3980947 1.1652387
2.4336197 1.7027773 -0.036143977 2.4141138 -2.1490881 -2.0650606 2.487175 -1.1668435

network.4.bias f4 [8]
00000000: ab79 063f 5242 ad3e 68f8 32bf 1b17 8bbe
00000010: 63dc 8cbf 84c7 003f 3426 1ebf a99e 033e
0.525294 0.3383966 -0.6991029 -0.27166066 -1.1004757 0.50304437 -0.61777043 0.12853493

network.6.weight f4 [2, 8]
00000000: 89fa cd3e 48e9 81bf b98b f9bf 373f 5dbf
00000010: f65f 9fbf ae0c 3ac0 2659 23c0 fa85 2d40
00000020: 7ae2 1540 5d9c 3fc0 e115 2840 0856 3240
00000030: 13c6 2dc0 475c a03f 962f 20bf 30a6 dfbe
0.40230206 -1.0149317 -1.9495765 -0.86424583 -1.245116 -2.907024 -2.5523162 2.7113023
2.341948 -2.9939187 2.6263354 2.786501 -2.7152145 1.2528161 -0.6257261 -0.43681479

network.6.bias f4 [2]
00000000: 7d1c 013f 254f aebe
0.50434095 -0.34044757
