src/saved_models/NN_lr0.001_bs8_epochs500_wgtdecay1e-05_hidden_size16_num_hidden_layers3_20250412_184826.pth (torch, 7680 bytes, 8 tensors)

network.0.weight f4 [16, 2]
0	0xc07732e6	-3.8624816
1	0xbf2cf2e9	-0.6755815
2	0xc040c094	-3.011754
3	0x3f5754b6	0.84113634
4	0xbfe6f549	-1.8043605
5	0xc006f16a	-2.1084847
6	0x3ffe49ce	1.9866273
7	0xc0358a57	-2.8365686
8	0x3fad9467	1.3560914
9	0x4057c69d	3.3714974
10	0x3ed7d595	0.42155138
11	0x4064882e	3.5708117
12	0xbf0f83dc	-0.56060576
13	0xbee53d1d	-0.44773188
14	0xbf03360e	-0.51254356
15	0xbf30d1a1	-0.6906987
16	0x3f18d450	0.59698963
17	0x404c0665	3.1878903
18	0x3d94e973	0.072710894
19	0x404bd268	3.1847172
20	0xbe2af888	-0.1669637
21	0xbf74383e	-0.9539832
22	0xbf602448	-0.8755536
23	0xc01dfdbf	-2.4686124
24	0xbebdb95a	-0.37055475
25	0x4014f1a5	2.3272488
26	0x4000795d	2.0074074
27	0x40984956	4.758952
28	0xbf52a227	-0.82278675
29	0xc005974b	-2.0873592
30	0x40660ed8	3.594656
31	0x3f4c0c2c	0.7970607

network.0.bias f4 [16]
0	0x3fe7cfd0	1.8110294
1	0x3ff0f4a9	1.8824664
2	0x400c1e07	2.1893327
3	0xbe905e1e	-0.28196806
4	0xbfb643f4	-1.4239488
5	0xbd3b9b87	-0.04580262
6	0x3f4b801b	0.7949235
7	0x3f54e4c8	0.8316159
8	0xbef48eff	-0.47765347
9	0x3ecd88d5	0.40143457
10	0xbe7154bc	-0.2356748
11	0x3f7b3928	0.9813409
12	0x3e24c842	0.16092017
13	0xbfa7d75a	-1.3112595
14	0x3f81abc9	1.013055
15	0xbf591c32	-0.8480865

network.2.weight f4 [16, 16]
0	0xc0ba2e98	-5.8181877
1	0xc0bb598b	-5.8546805
2	0xbfabc656	-1.3419902
3	0x3effbc0a	0.4994815
4	0x3f76ec11	0.9645396
5	0x3e70b2f2	0.23505762
6	0x3ebfffd6	0.37499875
7	0x3df54c4f	0.11977445
8	0x3f00fc4a	0.5038496
9	0xbf551484	-0.8323443
10	0x3ec9bc23	0.3940135
11	0xbf019116	-0.5061201
12	0xbfa20fad	-1.2661034
13	0x3fce1f5a	1.6103318
14	0xbe592f81	-0.21209528
15	0x3fb12c09	1.3841563
16	0xc0afa405	-5.488772
17	0xc04ca323	-3.197457
18	0x3eaf7b87	0.3427393
19	0x3f1d5458	0.61456823
20	0xbf0aac84	-0.5416949
21	0xbe984182	-0.29737478
22	0x3f65f538	0.898273
23	0x3f24c2bd	0.6435965
24	0xbefe7a38	-0.4970262
25	0xbe86239d	-0.26199046
26	0x3f317414	0.69317746
27	0x3eae0214	0.3398596
28	0x3ed364d2	0.41287857
29	0x3f1253da	0.571592
30	0x3f061d91	0.52388865
31	0x3f83c242	1.0293658
32	0x40cd5ffc	6.417967
33	0x40de0c2d	6.9389863
34	0x3fa26a02	1.2688601
35	0xbf2bae24	-0.6706259
36	0xbeec4f37	-0.46154186
37	0x3e73c144	0.23804194
38	0xbefebe93	-0.49754772
39	0xbf269f0b	-0.6508643
40	0x3cd37332	0.025811765
41	0x3f17aa88	0.59244585
42	0xbf42786f	-0.7596502
43	0xbdd08599	-0.10181732
44	0x3f9ea2fc	1.2393489
45	0xbf82548e	-1.0182054
46	0x3e4c74b7	0.19966398
47	0xbf8518e5	-1.0398222
48	0xc00f6cd9	-2.2410185
49	0xc081750e	-4.045539
50	0x3f674ee6	0.90354764
51	0x3f6d09f0	0.9259329
52	0xc0137525	-2.304025
53	0xbff33ca1	-1.9002877
54	0x3ef20bf6	0.4727475
55	0x3f0b1332	0.54326165
56	0xbfe021d1	-1.751032
57	0xbfea602a	-1.8310597
58	0x3f1d65fc	0.6148374
59	0x3fa051d1	1.2524968
60	0xbfed8ccd	-1.8558594
61	0xc0173e98	-2.3631954
62	0x3f8785a6	1.0587661
63	0x3f47724f	0.77908796
64	0x4059482d	3.3950303
65	0x40503048	3.2529469
66	0xc031d803	-2.7788093
67	0xbeeb5f84	-0.4597131
68	0x3fbe5e8e	1.4872606
69	0x3ed7b248	0.42128205
70	0xbf37e5e6	-0.7183517
71	0xbf5ddeb7	-0.8666796
72	0x3ed8b1ac	0.42323053
73	0x3e1c3dca	0.15257946
74	0x3ea5e2b5	0.32399526
75	0xbf58a7c8	-0.84631014
76	0xbf4f8305	-0.81059295
77	0x3f359c06	0.709412
78	0xbf59f702	-0.8514253
79	0xbf81d6e4	-1.0143704
80	0x400df8c6	2.218309
81	0x404cbe84	3.1991282
82	0xbfa0f191	-1.257372
83	0xbeba22ec	-0.36354768
84	0x40137fa2	2.304665
85	0x3fca6d99	1.5814697
86	0xbea893b7	-0.32925197
87	0xbebda5a8	-0.37040448
88	0x3fbad96f	1.4597605
89	0x3fb1edd5	1.3900706
90	0xbee9df8c	-0.45678365
91	0xbf6e955b	-0.9319665
92	0x3f2be6a3	0.671488
93	0x4017e99e	2.3736339
94	0xbf605484	-0.8762896
95	0xbf3fa66b	-0.7486331
96	0x3fea3407	1.8297127
97	0x406f0720	3.7348099
98	0xbf895060	-1.0727654
99	0xbf079fbe	-0.5297812
100	0x401211a2	2.2823262
101	0x3fdb5006	1.7133796
102	0xbe655f47	-0.22399627
103	0xbf2943c9	-0.66119057
104	0x3fb5e4ad	1.4210411
105	0x3fc7149e	1.5553167
106	0xbeda2744	-0.42608082
107	0xbf91d4bc	-1.1393046
108	0x3fb38758	1.4025679
109	0x403b32b7	2.9249704
110	0xbf685fe5	-0.90771323
111	0xbf35aecd	-0.7096985
112	0xc0120730	-2.2816887
113	0xc085c715	-4.180552
114	0x3f71ab0a	0.9440161
115	0x3f435632	0.763034
116	0xc012ed29	-2.295725
117	0xbfed643e	-1.8546216
118	0x3f05d974	0.5228493
119	0x3f0f3536	0.5594057
120	0xbfdd9bfb	-1.7313226
121	0xbff534cd	-1.9156739
122	0x3f0b7950	0.54481983
123	0x3fa71c72	1.3055556
124	0xbfdd7bd7	-1.7303418
125	0xc00961b8	-2.1465893
126	0x3f8a0aca	1.0784543
127	0x3f4b5287	0.794228
128	0x403f5aa5	2.9899075
129	0x400cc2ad	2.199382
130	0xbfd7d3c7	-1.6861504
131	0xbea7c83d	-0.32769957
132	0x3fd97421	1.6988565
133	0x3e9c4576	0.30521744
134	0xbf209aa0	-0.6273594
135	0xbece7664	-0.403247
136	0x3f26f404	0.6521609
137	0xbe88d9d7	-0.267287
138	0x3dad107f	0.08450412
139	0xbf2afa20	-0.6678791
140	0xbf7e08ae	-0.99231994
141	0x3f895dfd	1.0731808
142	0xbf4ebe02	-0.8075868
143	0xbf6a0461	-0.9141293
144	0x4008fbbc	2.1403646
145	0x404d0242	3.2032628
146	0xbf7f01f9	-0.99612385
147	0xbf1f10d1	-0.62135035
148	0x4011264e	2.267963
149	0x3fc323a2	1.5245249
150	0xbedef9ce	-0.4354996
151	0xbed14a0d	-0.4087681
152	0x3fad0cc9	1.3519527
153	0x3fb17710	1.386446
154	0xbed82d3d	-0.42222014
155	0xbf84995b	-1.03593
156	0x3f8a280d	1.0793473
157	0x40286117	2.630926
158	0xbf3ace2d	-0.7297085
159	0xbee76280	-0.45192337
160	0xc0a760fd	-5.2305894
161	0xc04af9f7	-3.1715066
162	0x3ef21ff7	0.47290012
163	0x3eb46c25	0.35238758
164	0xbe476dbd	-0.19475456
165	0xbce5863a	-0.028018106
166	0x3f34a33c	0.70561576
167	0x3ee3a64c	0.44462812
168	0xbe6e9a02	-0.23300937
169	0x3d2f4b14	0.04279621
170	0x3efe2c88	0.4964335
171	0x3ef45825	0.477235
172	0x3e500701	0.20315172
173	0x3f1ae773	0.60509413
174	0x3e7b43e3	0.24537615
175	0x3fac0d1e	1.3441503
176	0x40a9cf9b	5.3065925
177	0x40d91444	6.783724
178	0x3ffe9ca9	1.9891559
179	0xbed7d314	-0.42153227
180	0xbfdf7403	-1.7457279
181	0xbea3f791	-0.32024816
182	0x3ec70bb1	0.38876107
183	0x3e48b548	0.19600403
184	0xbf0ea935	-0.5572694
185	0x3f0134f8	0.5047145
186	0xbde944ba	-0.11390062
187	0x3f464802	0.77453625
188	0x3f9a10f6	1.2036426
189	0xbfc61b58	-1.5477095
190	0x3f16e09c	0.58936477
191	0xbf25424a	-0.64554274
192	0xc0b540b6	-5.6641493
193	0xc021b84e	-2.526874
194	0x3f57bc6a	0.8427187
195	0x3cda2719	0.026629971
196	0xbf658e1c	-0.89669967
197	0xbe853835	-0.26019445
198	0x3f4d8114	0.8027508
199	0x3f40952f	0.75227636
200	0xbebf934f	-0.37417075
201	0xbead5c70	-0.33859587
202	0x3e0dedf0	0.13860297
203	0x3f1d2bf7	0.6139521
204	0x3ec2aa85	0.3802072
205	0x3e0542da	0.13013783
206	0x3eca1c2b	0.39474615
207	0x3f61f242	0.8826028
208	0xc0000133	-2.0000732
209	0xc042077f	-3.0317075
210	0x3f8e8e47	1.113717
211	0x3eff0a78	0.49812675
212	0xbff957dc	-1.9479938
213	0xbfa46e6a	-1.2846196
214	0x3dc70659	0.097180076
215	0x3ea8b83b	0.32953057
216	0xbf8838e8	-1.0642366
217	0xbf931b2f	-1.1492671
218	0x3e31c277	0.17359339
219	0x3f484c48	0.78241396
220	0xbef3cee0	-0.4761877
221	0xc00ede9c	-2.232337
222	0x3f47bffb	0.78027314
223	0x3f239826	0.63904035
224	0x40bc0ee9	5.87682
225	0x40986f26	4.763568
226	0x3e834db4	0.2564522
227	0xbeb9815e	-0.36231512
228	0x3ed0c7f3	0.4077755
229	0x3ed7f641	0.42180064
230	0xbf6a5d5a	-0.91548693
231	0xbed2e952	-0.41193634
232	0x3e16ce59	0.14727153
233	0x3f2c8841	0.67395407
234	0xbf0f16d6	-0.5589422
235	0xbe43b963	-0.19113688
236	0x3ece28bc	0.40265453
237	0xbf08feb1	-0.5351363
238	0xbee5814e	-0.44825214
239	0xbf6f6814	-0.93518186
240	0x40ade264	5.4338856
241	0x403a8d69	2.914881
242	0xbf76b815	-0.96374637
243	0xbe54d51a	-0.20784417
244	0x3f93200f	1.1494159
245	0x3ee5144f	0.44742057
246	0xbf785bc2	-0.9701501
247	0xbf4eef93	-0.8083431
248	0x3f37a3f8	0.7173457
249	0x3f1c7a3b	0.6112401
250	0xbec9d707	-0.39421865
251	0xbf290232	-0.66018975
252	0xbe4427f8	-0.19155872
253	0xbda5e637	-0.081005506
254	0xbf031767	-0.51207584
255	0xbf766c2b	-0.962588

network.2.bias f4 [16]
0	0x3e000e70	0.12505507
1	0xbe19e6e6	-0.15029487
2	0x3c98c1da	0.018647123
3	0x3e880982	0.26569754
4	0x3dc9bd73	0.09850588
5	0x3d17941b	0.03700648
6	0xbe2539e9	-0.16135372
7	0x3e607b9a	0.2192215
8	0x3d37cbd6	0.044872127
9	0xbe123416	-0.14277682
10	0xbdd271e8	-0.10275632
11	0x3cf7b2de	0.030236658
12	0x3c604331	0.013687895
13	0x3e4eb345	0.20185573
14	0x3c728763	0.0148027865
15	0x3e3066ee	0.17226765

network.4.weight f4 [16, 16]
0	0xbfa7869b	-1.3087953
1	0xbcc86e47	-0.024466647
2	0xbc548045	-0.012970035
3	0x3f831f55	1.0243937
4	0xbf279f08	-0.6547704
5	0xbfd80194	-1.6875482
6	0xc00307ed	-2.0473588
7	0x3fa827b5	1.3137118
8	0xbf980db7	-1.1879185
9	0xbfe5152c	-1.7897086
10	0xbdf15fb8	-0.11785835
11	0x3f66ad39	0.90108067
12	0x3dd332ba	0.1031241
13	0x3f3797fd	0.7171629
14	0xbf99a3f1	-1.2003156
15	0xc00edfa2	-2.2323995
16	0xbfaf2fd5	-1.3686472
17	0x3e49d12c	0.19708699
18	0x3fa023ee	1.2510965
19	0xbf11a8aa	-0.56897986
20	0xc0332068	-2.798853
21	0xbec0684f	-0.3757958
22	0xbe4dfd87	-0.20116244
23	0xbe994639	-0.29936388
24	0xc0132ce8	-2.2996159
25	0xbe99ae3a	-0.30015737
26	0x3e305563	0.17220072
27	0x401800e6	2.3750548
28	0x3f3e1929	0.7425714
29	0x3f5ba503	0.8579866
30	0x3c805f4b	0.01567044
31	0xc02a05bc	-2.6566
32	0xc003fe7c	-2.0624075
33	0xbfaac451	-1.3341161
34	0x40682e49	3.627825
35	0xc013d2bc	-2.3097372
36	0x3f582e85	0.84445983
37	0x3ef0894d	0.46979752
38	0x3d941c05	0.07231907
39	0xc0075480	-2.1145325
40	0x3edba028	0.42895627
41	0x3ec3399a	0.38129884
42	0xbf688b22	-0.908373
43	0x402af38e	2.6711154
44	0xbf16c3fa	-0.58892787
45	0xbf3c245b	-0.73492974
46	0x402d9501	2.7122195
47	0x40068858	2.1020718
48	0xbfb68bc3	-1.4261402
49	0xbfba7415	-1.4566675
50	0x3fe04948	1.7522364
51	0x4025da24	2.5914392
52	0x3fde0554	1.7345376
53	0xbe9183ba	-0.28420812
54	0xbf08353c	-0.5320623
55	0x400e6a0d	2.2252228
56	0x3fa26c3c	1.268928
57	0xbd2f72fd	-0.04283427
58	0xbfa2d849	-1.2722255
59	0x3fb0d3a7	1.3814591
60	0xbf977749	-1.1833278
61	0x3fe70e27	1.8051194
62	0x3fde0699	1.7345763
63	0x401058fa	2.2554307
64	0xbf6c9c6b	-0.92426175
65	0x3f2cc0ea	0.67481863
66	0xbec84cce	-0.39121097
67	0x3fee2923	1.8606304
68	0xbf88dcf0	-1.0692425
69	0xbff74cfa	-1.9320366
70	0xc00ed677	-2.23184
71	0x4007a560	2.1194687
72	0xbfeb8673	-1.8400406
73	0xbff654db	-1.9244646
74	0x3f273ba8	0.65325403
75	0x3f135663	0.5755369
76	0x3ef9dec6	0.48802775
77	0x3fa3f182	1.2808077
78	0xbff5d5b4	-1.9205842
79	0xc03079d4	-2.7574358
80	0x3fae45c9	1.3615047
81	0x3ef749a7	0.4829838
82	0xbeb9f952	-0.3632303
83	0xbfa58042	-1.2929766
84	0x3f1b756f	0.60726064
85	0x3fc9bf3a	1.5761483
86	0x3fc2e53e	1.5226209
87	0xbf9032d9	-1.1265517
88	0x3f84fcac	1.0389609
89	0x3fc9b763	1.575909
90	0x3ef7eef2	0.48424488
91	0xbf6914e9	-0.9104753
92	0x3dbea078	0.09307951
93	0xbf36796e	-0.71279037
94	0x3f199d7b	0.6000592
95	0x3fca1b18	1.5789518
96	0x3f11c714	0.56944394
97	0x3f808fff	1.0043944
98	0xbfc290f9	-1.5200492
99	0x3fb62940	1.4231339
100	0xbf83b24d	-1.0288788
101	0xbf8b2585	-1.0870825
102	0xbf59a931	-0.8502379
103	0x3fb28988	1.3948221
104	0xbf905ea0	-1.1278877
105	0xbf6afec6	-0.91795003
106	0x3f4aca8b	0.79215306
107	0xbf904940	-1.1272354
108	0x3f81afbb	1.0131754
109	0x3f74c246	0.9560894
110	0xbfeb097d	-1.836227
111	0xbfdd3a7c	-1.7283473
112	0xc00b92c8	-2.1808338
113	0xbf0f3193	-0.5593502
114	0x40adcc77	5.431209
115	0xbfd63604	-1.6735234
116	0xbfc46b5b	-1.5345262
117	0xbd87eba9	-0.066367455
118	0x3e1310d8	0.14361894
119	0xbfcbb109	-1.5913402
120	0xbf77229c	-0.96537185
121	0x3e674c4e	0.22587702
122	0xbf45aee8	-0.7722001
123	0x40bbf3a1	5.87349
124	0xbc16882f	-0.009187742
125	0xbdce2438	-0.10065502
126	0x40398d20	2.8992386
127	0x3f474682	0.7784196
128	0xc00d9e86	-2.2128005
129	0xbfc6de4f	-1.5536593
130	0x4065780f	3.5854528
131	0xbfa20d1c	-1.2660251
132	0x3f8e10c1	1.1098863
133	0x3e8cb850	0.2748437
134	0xbe0acacd	-0.13553925
135	0xbfb18b8c	-1.3870711
136	0x3e9f9eb2	0.31175762
137	0x3e939e73	0.28831825
138	0xbf94c6f8	-1.162322
139	0x40427810	3.038578
140	0xbf704b3d	-0.93864805
141	0xbd25d7d5	-0.040489037
142	0x401e31cf	2.47179
143	0x40141f90	2.3144264
144	0x3fd9b178	1.7007284
145	0x3eaf0cdc	0.34189498
146	0xbedf331e	-0.43593687
147	0xbfb5ecaf	-1.4212855
148	0x3f13ccd1	0.577344
149	0x3fd61c52	1.6727393
150	0x3fe6a885	1.8020178
151	0xbfb5524d	-1.4165741
152	0x3f890228	1.0703783
153	0x3fdb5e0b	1.7138075
154	0x3f266f30	0.6501341
155	0xbf64c68f	-0.89365476
156	0x3bcd2ba3	0.0062613054
157	0xbf546140	-0.8296089
158	0x3f10b386	0.5652393
159	0x3fc4c3d4	1.5372262
160	0xc061ed5e	-3.5301127
161	0xbf9c1f6d	-1.219709
162	0x3f57bf41	0.84276205
163	0x4007a522	2.119454
164	0xbfcc7dc1	-1.5975877
165	0xc00fccf2	-2.2468839
166	0xc02c48ab	-2.6919353
167	0x3ff0ec65	1.8822142
168	0xbfb83939	-1.4392463
169	0xc0184891	-2.379429
170	0xbfba413e	-1.455116
171	0x3f83c528	1.0294542
172	0xbefd0233	-0.4941574
173	0x3fad2690	1.3527393
174	0x3dd79354	0.105261475
175	0xbefc4d6b	-0.49277815
176	0x40240c7b	2.5632617
177	0x3ff66b64	1.9251523
178	0xbf8c9183	-1.0981907
179	0xc0154cc6	-2.3328109
180	0x3fdb498c	1.713182
181	0x401fd387	2.4972856
182	0x402fd88e	2.7475924
183	0xc01ea004	-2.4785166
184	0x3fd0a2df	1.6299704
185	0x40176353	2.3654373
186	0x3ff30bd0	1.898798
187	0xbf8b3431	-1.0875303
188	0x3fa837cb	1.3142027
189	0xbfbe14f5	-1.4850146
190	0xbf261a5d	-0.6488398
191	0xbed38c94	-0.4131819
192	0x3f73b8a0	0.9520359
193	0xbe968271	-0.29396394
194	0x3e5fce43	0.21856026
195	0xbfd6c2c0	-1.6778183
196	0x3f51c30f	0.8193826
197	0x3fed592e	1.854284
198	0x4010f759	2.265097
199	0xbfc26a0c	-1.5188613
200	0x3fc7885b	1.5588487
201	0x4004e8f0	2.0767174
202	0xbebb0903	-0.36530313
203	0xbf74f901	-0.9569245
204	0xbf057131	-0.5212584
205	0xbf8664ef	-1.0499552
206	0x3fbff539	1.4996711
207	0x402bc880	2.6841125
208	0xbfdfb2a2	-1.747639
209	0xbfbdcc6d	-1.4828011
210	0x3fcd09b4	1.6018586
211	0x3f082514	0.53181577
212	0x4017902a	2.368174
213	0x3e935cf9	0.2878187
214	0xbe5be2e7	-0.21473275
215	0x3f04bc71	0.5185004
216	0x3fdd1665	1.7272459
217	0x3eb4a5ca	0.35282737
218	0xbfbb0822	-1.4611857
219	0x3f9d8b34	1.2308106
220	0xbfcb1af5	-1.5867602
221	0x3c848aba	0.016179431
222	0x3fefebfe	1.8743894
223	0x40156ca6	2.3347564
224	0x3f5a0b11	0.85173136
225	0x3fa2697d	1.2688442
226	0xc001f560	-2.0306015
227	0x402511dd	2.5792153
228	0xbfd57634	-1.6676698
229	0xc00d6eb2	-2.2098813
230	0xbfe3b841	-1.7790605
231	0x402b1f0a	2.6737695
232	0xc0091300	-2.1417847
233	0xbfe31c81	-1.7743074
234	0x3f9f403e	1.244148
235	0xbef3867a	-0.47563535
236	0x3f66fc81	0.9022904
237	0x3fe015c0	1.7506638
238	0xc0258280	-2.58609
239	0xc02e48cb	-2.723193
240	0x3f226fcc	0.6345184
241	0x4072ca63	3.7936027
242	0xbf9634e7	-1.1734895
243	0xbfb7ffe8	-1.4374971
244	0x402c81e9	2.695429
245	0x3fe19cdf	1.7625998
246	0x3fe7f75f	1.8122367
247	0xbfe0609e	-1.7529485
248	0x3fc76fef	1.5581034
249	0x3feac9c3	1.8342823
250	0x4071f780	3.7807312
251	0xbf86fd23	-1.0546001
252	0x4045393b	3.081618
253	0xbf9a3288	-1.2046671
254	0xbf9ec15b	-1.2402757
255	0xc0249436	-2.571546

network.4.bias f4 [16]
0	0xbf0263af	-0.50933355
1	0x3eb20f7d	0.34777442
2	0x3e398e5d	0.18120714
3	0xbe0f694b	-0.1400501
4	0xbee4cd61	-0.44687942
5	0x3f27a2f0	0.65483
6	0xbede5db2	-0.4343086
7	0x3ed39bd5	0.41329828
8	0x3e20c539	0.15700234
9	0x3ee4af41	0.44664958
10	0xbed15d53	-0.40891513
11	0x3e5817c3	0.21102814
12	0x3f24c5c4	0.64364266
13	0xbe8bf784	-0.27337277
14	0xbec3cdd1	-0.38242963
15	0x3eda5e75	0.4265019

network.6.weight f4 [2, 16]
0	0x3d85d80e	0.0653535
1	0x3ed2b00f	0.41149947
2	0xbf1752a7	-0.5911049
3	0x40065dd9	2.099478
4	0xbfdf64eb	-1.7452673
5	0xbd1bf33b	-0.03807376
6	0xbe63fcda	-0.22264424
7	0xc0107321	-2.257027
8	0xbe4a13e1	-0.19734146
9	0x3ca0a4a6	0.01960976
10	0x4045b713	3.089299
11	0xbf82a585	-1.0206763
12	0x3f36c6ac	0.713969
13	0x40063dfe	2.0975337
14	0xc0274138	-2.6133556
15	0xbfaff838	-1.3747625
16	0x3ffe1bc0	1.9852219
17	0x3ffd5cf0	1.9793987
18	0x3fea45d5	1.8302561
19	0xbf0f7a16	-0.56045663
20	0x3ffd7d94	1.9803948
21	0xbf852275	-1.040114
22	0xbf9f15f5	-1.2428576
23	0x3f8381ca	1.0273983
24	0x3ff82b97	1.9388303
25	0xbf7b7f4f	-0.9824113
26	0x3fbf2e83	1.4936069
27	0xbe4ef281	-0.20209695
28	0xbfd1391e	-1.6345556
29	0xbfbf204d	-1.4931732
30	0xbfdcb7ca	-1.7243588
31	0x3fa533db	1.290645

network.6.bias f4 [2]
0	0x3ea9a22c	0.3313154
1	0xbebf923e	-0.3741626
