saved_models/best_snom_model_v1.pt (torch, 5657 bytes, 6 tensors)

net.0.weight f4 [16, 2]
000000 29 07 1c c0 e5 4e 4c c0 e1 93 21 c0 c9 68 78 3f
       -2.437937 -3.1923153 -2.5246508 0.9703489
000010 a5 ad 0e 40 bb 62 bb be 49 a7 61 3f f5 78 6b c0
       2.2293484 -0.36598763 0.8814588 -3.6792576
000020 81 c2 2e 40 ab f3 03 40 38 fc 22 40 55 50 cb bf
       2.7306216 2.0617473 2.5466442 -1.588389
000030 42 4d 26 c0 c9 a0 be 3f 37 74 7e bf 96 2f df bf
       -2.5984654 1.4892818 -0.9939608 -1.7436397
000040 78 9b 0e c0 2a d7 32 40 94 d6 ec bf 93 2f 05 3e
       -2.228239 2.7943826 -1.8502984 0.1300643
000050 9b 96 19 c0 36 87 35 c0 56 3f 2a 40 51 cb d1 3f
       -2.3998172 -2.8363776 2.6601157 1.6390172
000060 fb de 06 40 98 c2 29 c0 c7 bd 1f 40 b6 5f 3a c0
       2.1073596 -2.652502 2.495958 -2.9120917
000070 36 fe de bf c1 cd 40 c0 d3 0d 15 c0 55 f9 4a 3f
       -1.7421329 -3.0125582 -2.3289688 0.792867

net.0.bias f4 [16]
000000 d7 69 16 bf db 23 4f 40 af 9b 25 c0 91 ad 36 c0
       -0.5875525 3.2365634 -2.5876272 -2.8543437
000010 88 5d 63 be de fa d8 bf 0d 33 2a 40 9f a6 29 40
       -0.22203648 -1.6951559 2.659366 2.6507947
000020 19 29 22 40 23 72 06 40 9d 14 d0 be 55 88 a2 bd
       2.5337584 2.1007164 -0.40640727 -0.079361595
000030 46 0f 34 c0 36 07 32 c0 e1 6a 15 40 5c 56 e6 3f
       -2.8134322 -2.7816901 2.3346484 1.7995105

net.2.weight f4 [16, 16]
000000 40 9d de 3f 36 e8 ed 3f c6 81 c1 bf 9f 8b e6 bb
       1.7391739 1.858649 -1.5117729 -0.007035687
000010 86 d8 e2 bf 51 75 39 bf 67 d1 ac 3f 90 46 b8 3f
       -1.7722328 -0.72444636 1.3501405 1.4396534
000020 ec 26 d5 be 9f e0 95 3f 16 e0 b5 3f ca 2d bf bf
       -0.41631258 1.1709174 1.4209011 -1.4935849
000030 f4 f1 24 3e 65 f6 9c 3f 92 71 d8 3f aa 02 8b 3f
       0.16107923 1.2262694 1.6909659 1.0860188
000040 f8 18 c4 3f f4 ca d7 3f 30 48 9f bf 28 66 e9 be
       1.532012 1.6858811 -1.2443905 -0.45585752
000050 25 04 e3 bf 12 d5 e2 bf 26 08 bc 3f 32 04 84 3f
       -1.773564 -1.7721274 1.4689987 1.031378
000060 25 33 f7 3e a7 b4 84 3f fc 76 ed 3f e3 2d e1 bf
       0.48281208 1.0367631 1.8551936 -1.7592129
000070 e8 46 b7 bf 0a de 3c bf aa 7c 00 40 1e c5 93 3f
       -1.4318514 -0.73776305 2.007609 1.154453
000080 68 98 be 3d f6 a1 23 3f e3 60 c7 3e e1 06 e9 be
       0.09306413 0.6391901 0.38941106 -0.4551306
000090 23 cd 3f 3e c8 d3 88 3f fe 68 72 3f 00 3d c5 bf
       0.18730597 1.068963 0.94691455 -1.5409241
0000a0 b0 2e 3c 3f 78 8b c4 bf 34 0c 1b 3f 74 fa 9d 3f
       0.7350874 -1.5355062 0.60565495 1.2342057
0000b0 a6 c3 fa 3d 83 2a 95 bc 42 6b e8 be f5 88 81 be
       0.12244348 -0.018208748 -0.4539433 -0.25299802
0000c0 f7 46 dd 3f 1c 45 05 40 a0 77 e1 bf a8 31 03 bf
       1.7287282 2.082343 -1.7614632 -0.51247644
0000d0 7a cc a5 bf da c9 11 c0 8f 0e f8 3f e9 b0 eb 3f
       -1.2953026 -2.277945 1.9379443 1.8413364
0000e0 e8 55 f3 3f 55 46 f2 3f d3 8a d8 3f 4a 0a 77 bf
       1.9010592 1.8927714 1.6917366 -0.96500075
0000f0 cb 09 00 c0 7f 74 dd bf a1 c9 d9 3f 43 39 04 40
       -2.0005977 -1.7301177 1.7014657 2.065995
000100 fe 00 46 bf 4b af 0f c0 b1 f3 00 40 86 79 2d 40
       -0.77345264 -2.245074 2.0148737 2.7105422
000110 9c 48 9e 3f ff bd 04 40 b3 35 13 c0 a4 e3 99 bf
       1.2365909 2.0740964 -2.3001525 -1.2022595
000120 f4 c9 17 c0 25 19 17 c0 f6 b7 90 bf 2d 4a a9 3f
       -2.3717012 -2.3609097 -1.130614 1.3225762
000130 b4 25 24 40 c4 1e 27 40 8d 07 2a be 43 4e 16 c0
       2.5648012 2.6112528 -0.16604443 -2.3485267
000140 4e ff 6a 3f d8 d3 6a 3f f7 85 86 bf d0 dd 7f 3f
       0.91795814 0.917295 -1.0509633 0.99947834
000150 33 d3 ed be e6 b8 87 bf 26 c1 c1 3f ae 11 32 40
       -0.46450195 -1.0603302 1.5137069 2.782329
000160 cc b6 ec be 48 bb 14 40 0b b1 88 3f bb d6 d5 bf
       -0.46233213 2.3239307 1.0679029 -1.6706156
000170 06 30 1d 3f 7a ae 76 3f 02 c1 de 3f 68 0a 0a 40
       0.614014 0.9635998 1.7402651 2.1568851
000180 a1 ab 55 3f 76 a5 ce 3f 41 fd 5a bf 4e 44 91 3f
       0.8346501 1.6144245 -0.85542685 1.134897
000190 0b a2 8a be 38 67 ea bf 34 48 f1 3f 33 60 0a 40
       -0.27076754 -1.831275 1.885016 2.1621215
0001a0 f2 98 d7 3c db 74 f7 3f 2e 17 1a 3f 2d 2f b8 bf
       0.026318047 1.9332536 0.6019162 -1.4389397
0001b0 42 09 df 3e cb 8b 2c be 52 92 cb 3f b0 4b f4 3f
       0.4356175 -0.16850202 1.5904028 1.9085598
0001c0 2c 9e 8b bf 75 d0 0e 40 15 2c fd bf a8 ae 35 c0
       -1.0907645 2.2314732 -1.9779078 -2.8387852
0001d0 d8 41 87 bf 35 c3 e3 bf 12 d7 1c 40 21 10 43 40
       -1.0566969 -1.7793947 2.4506269 3.0478594
0001e0 af 19 0c 40 c9 fc fc 3f 6d a7 65 bf d3 4c a9 bf
       2.1890676 1.9764644 -0.89708596 -1.322657
0001f0 ea 4d 18 c0 d0 5f 0d c0 42 03 62 bf 94 08 00 40
       -2.3797555 -2.208973 -0.8828622 2.0005236
000200 62 c6 dd be 61 c6 a7 bf 61 69 65 3f 04 e2 0c 40
       -0.43315417 -1.3107415 0.8961392 2.201295
000210 78 66 6f 3f c4 ad fc bf 99 6b 47 3f 1b dc 05 40
       0.9351573 -1.9740529 0.77898556 2.0915592
000220 38 51 3c 3f 9e a3 70 3f 3d 98 31 bd 5b d2 af bf
       0.7356143 0.9399966 -0.043358076 -1.373607
000230 83 37 d6 3e 41 dd a2 be 83 d5 be bf 07 69 87 3f
       0.41839227 -0.31809428 -1.4908909 1.0578927
000240 37 c3 e5 bf 2a 02 b9 bf e8 d3 37 3f 5e e3 ba 3f
       -1.79502 -1.4453785 0.7180772 1.4600637
000250 aa 04 71 3f 3c 42 56 3e a8 1b ac bf 8c cc 9b 3f
       0.9414774 0.20923704 -1.344594 1.2171798
000260 27 00 d6 bf 64 5f b7 bf 8e d4 00 c0 63 04 60 3f
       -1.6718796 -1.4325986 -2.0129733 0.87506694
000270 17 4e ea 3f 40 91 d5 3f 42 e7 cd bf 7e d4 e1 bf
       1.8305081 1.6684952 -1.6086199 -1.7642972
000280 61 42 e1 3f 77 f7 ad 3f a9 cb 00 c0 77 e1 01 c0
       1.7598382 1.3591145 -2.0124304 -2.0293863
000290 92 ef b0 bf a8 e1 9e bf 36 a4 9a 3f 96 61 f5 3f
       -1.3823111 -1.2412615 1.2081363 1.9170406
0002a0 15 b8 c0 3f 29 a5 d5 3f 26 8d de 3f a8 e7 fa bf
       1.5056177 1.6691028 1.7386825 -1.9601946
0002b0 08 9e 03 c0 88 39 f5 bf ac e0 18 bf 48 f8 d3 3f
       -2.0565205 -1.9158182 -0.5971782 1.6560144
0002c0 ec 3d 20 c0 d8 e3 7b bf 71 de 08 40 84 83 00 c0
       -2.5037794 -0.98394537 2.1385767 -2.008027
0002d0 4a b3 01 40 6a 60 c7 3f 66 07 28 bf 59 7a 0e bf
       2.026568 1.5576298 -0.6563629 -0.5565544
0002e0 ee f3 fd 3e 9e 37 82 bf 1b 39 10 c0 81 14 19 40
       0.49600166 -1.0173223 -2.2534854 2.3918765
0002f0 80 cd c4 bd 8d 0d ab 3e 77 7e 5d bf 02 d4 98 bf
       -0.096095085 0.33408776 -0.86521095 -1.19397
000300 2e 14 1b c0 9a bd 6a bf 00 64 d6 3f 13 2f 91 3f
       -2.4231067 -0.9169556 1.6749268 1.1342491
000310 41 79 07 40 25 81 a8 3f 23 ad 99 bf c4 ff 05 be
       2.1167758 1.3164412 -1.2005962 -0.13085848
000320 16 88 48 bf ae 05 83 bf 3b 09 08 c0 85 0d df 3f
       -0.7833265 -1.0236108 -2.1255634 1.7426001
000330 f4 55 bf 3f b8 e8 aa 3f fd 7b 71 bf 76 b0 f3 be
       1.4948106 1.335227 -0.94329816 -0.47595567
000340 10 7d 2e be d1 f1 47 bf d9 ce 14 3f 57 3f 20 40
       -0.17039895 -0.7810336 0.58128124 2.503866
000350 91 50 4e 3f a2 0b e7 bf cb c9 6c 3f 11 69 2b 40
       0.80591685 -1.8050425 0.9249541 2.6782877
000360 92 c2 02 3f 60 2c 17 3f db a0 9c 3e a0 86 87 bf
       0.5107814 0.59052086 0.30591473 -1.0587959
000370 fb 22 2f 3f b5 40 23 bf b8 d5 b0 bf 14 1d c2 3f
       0.6841275 -0.6377061 -1.3815222 1.5165124
000380 9f 61 fb 3f 33 7f 09 40 c5 b9 e5 bf ea 63 f4 bf
       1.9639167 2.1483886 -1.7947317 -1.9092991
000390 98 33 f3 bf d5 84 c2 bf e8 19 e3 3f e4 50 86 3e
       -1.900012 -1.5196787 1.7742281 0.2623359
0003a0 9e 6b 03 40 e9 6f dc 3f fc 5b 01 40 e4 d1 c6 bf
       2.0534434 1.7221652 2.0212393 -1.5532804
0003b0 8e e1 07 c0 5b 16 e4 bf fb e4 ce 3f c2 bc ff 3f
       -2.1231418 -1.7819322 1.6163629 1.9979479
0003c0 09 fb 9f 3f fd c8 bd bf f9 60 a0 3f 67 47 0a 40
       1.2498485 -1.4826962 1.2529594 2.160608
0003d0 7e ac 17 bf d1 2f fd 3f 2b b6 b4 bf 05 27 e2 3d
       -0.5924758 1.9780217 -1.4118093 0.11042599
0003e0 31 ee 02 c0 f2 d8 38 be 43 d8 ac 3f 0f 5a 60 3f
       -2.045788 -0.18051508 1.3503498 0.8763742
0003f0 21 0e 02 40 a0 f5 0b 40 86 3c 3e bf da 4c bf bf
       2.0321124 2.1868668 -0.743111 -1.4945328

net.2.bias f4 [16]
000000 a2 1d 53 3e 07 82 af 3e ba 78 c1 3f 9a 32 54 3f
       0.20616773 0.3427889 1.5114968 0.8288971
000010 aa 80 82 be e4 8a 14 bf 8e f5 8d be 84 05 bb bf
       -0.25488788 -0.5802443 -0.27726406 -1.4611058
000020 0f 52 a4 3d 91 75 f5 be a2 70 90 bf 6e 72 66 3f
       0.08023464 -0.4794126 -1.1284373 0.90018356
000030 09 ff e1 3f 79 1d 89 be ed 79 e8 3e dc 4f 0d 3f
       1.7655956 -0.26780298 0.45405522 0.5519998

net.4.weight f4 [2, 16]
000000 e5 fb 8e bf 01 96 56 3f d3 b8 ac 3f 9b 21 80 bf
       -1.1170622 0.8382264 1.3493904 -1.0010256
000010 27 57 f5 bf 2d 20 b4 bf c1 21 d0 bf e1 46 8a bf
       -1.9167222 -1.4072319 -1.6260301 -1.080288
000020 1f 60 33 bf 82 6e 9e bf 44 e8 e9 3f 90 5a bf bf
       -0.70068544 -1.2377474 1.8274007 -1.4949512
000030 53 c1 91 3f f4 92 4a bd 0a cd 13 40 0b e8 e4 3f
       1.1387123 -0.04945655 2.3093896 1.7883314
000040 a2 57 15 40 2c 13 08 40 48 d5 ed be 73 c3 13 40
       2.3334737 2.1261702 -0.46451783 2.3088043
000050 e1 25 0a 40 ba b2 40 bf 4f 91 73 3e 34 e8 21 c0
       2.158562 -0.75272715 0.237859 -2.5297976
000060 84 0d c6 bf c1 e0 7e bf 08 09 fd bf 5b be e9 bf
       -1.5472875 -0.995617 -1.9768381 -1.8261217
000070 36 99 13 40 67 a0 eb bf 54 fb c1 3f f3 cc d8 bf
       2.3062263 -1.8408326 1.5154824 -1.6937546

net.4.bias f4 [2]
000000 ec a8 5e 3f 20 9e 2b 3d
       0.86976504 0.041898847
